…
nt=randaugment, erasing=0.4, crop_fraction=1.0, cfg=None, tracker=botsort.yaml, prune_model=False, teacher_weights=None, teacher_cfg=None, kd_loss_type=logical, kd_loss_decay=constant, logical_loss_type=l2, logical_loss_ratio=1.0, teacher_kd_layers=15,18,21, student_kd_layers=15,18,21, feature_loss_type=cwd, feature_loss_ratio=1.0, save_dir=runs/train/oilexp3
Overriding model.yaml nc=80 with nc=8

                   from  n    params  module                                                      arguments                                         
  0                  -1  1      1392  ultralytics.nn.modules.conv.Conv                            [3, 48, 3, 2]                                     
  1                  -1  1     41664  ultralytics.nn.modules.conv.Conv                            [48, 96, 3, 2]                                    
  2                  -1  2    111360  ultralytics.nn.modules.block.C2f                            [96, 96, 2, True]                                 
  3                  -1  1    166272  ultralytics.nn.modules.conv.Conv                            [96, 192, 3, 2]                                   
  4                  -1  4    813312  ultralytics.nn.modules.block.C2f                            [192, 192, 4, True]                               
  5                  -1  1    664320  ultralytics.nn.modules.conv.Conv                            [192, 384, 3, 2]                                  
  6                  -1  4   3248640  ultralytics.nn.modules.block.C2f                            [384, 384, 4, True]                               
  7                  -1  1   1991808  ultralytics.nn.modules.conv.Conv                            [384, 576, 3, 2]                                  
  8                  -1  2   3985920  ultralytics.nn.modules.block.C2f                            [576, 576, 2, True]                               
  9                  -1  1    831168  ultralytics.nn.modules.block.SPPF                           [576, 576, 5]                                     
 10                   4  1     37248  ultralytics.nn.modules.conv.Conv                            [192, 192]                                        
 11                   6  1     74112  ultralytics.nn.modules.conv.Conv                            [384, 192]                                        
 12                   9  1    110976  ultralytics.nn.modules.conv.Conv                            [576, 192]                                        
 13                  -1  1         0  torch.nn.modules.upsampling.Upsample                        [None, 2, 'nearest']                              
 14            [-1, 11]  1         2  ultralytics.nn.extra_modules.block.Fusion                   [[192, 192], 'bifpn']                             
 15                  -1  2    443904  ultralytics.nn.modules.block.C2f                            [192, 192, 2]                                     
 16                  -1  1         0  torch.nn.modules.upsampling.Upsample                        [None, 2, 'nearest']                              
 17            [-1, 10]  1         2  ultralytics.nn.extra_modules.block.Fusion                   [[192, 192], 'bifpn']                             
 18                  -1  2    443904  ultralytics.nn.modules.block.C2f                            [192, 192, 2]                                     
 19                   2  1    166272  ultralytics.nn.modules.conv.Conv                            [96, 192, 3, 2]                                   
 20        [-1, 10, 18]  1         3  ultralytics.nn.extra_modules.block.Fusion                   [[192, 192, 192], 'bifpn']                        
 21                  -1  2    443904  ultralytics.nn.modules.block.C2f                            [192, 192, 2]                                     
 22                  -1  1    332160  ultralytics.nn.modules.conv.Conv                            [192, 192, 3, 2]                                  
 23        [-1, 11, 15]  1         3  ultralytics.nn.extra_modules.block.Fusion                   [[192, 192, 192], 'bifpn']                        
 24                  -1  2    443904  ultralytics.nn.modules.block.C2f                            [192, 192, 2]                                     
 25                  -1  1    332160  ultralytics.nn.modules.conv.Conv                            [192, 192, 3, 2]                                  
 26            [-1, 12]  1         2  ultralytics.nn.extra_modules.block.Fusion                   [[192, 192], 'bifpn']                             
 27                  -1  2    443904  ultralytics.nn.modules.block.C2f                            [192, 192, 2]                                     
 28        [21, 24, 27]  1   2453224  ultralytics.nn.modules.head.Detect                          [8, [192, 192, 192]]                              
YOLOv8m-bifpn summary: 335 layers, 17581540 parameters, 17581524 gradients, 71.4 GFLOPs

Transferred 534/540 items from pretrained weights
[34m[1mTensorBoard: [0mStart with 'tensorboard --logdir runs/train/oilexp3', view at http://localhost:6006/
Freezing layer 'model.28.dfl.conv.weight'
[34m[1mAMP: [0mrunning Automatic Mixed Precision (AMP) checks with YOLOv8n...
…
